data/structure/net.pt (torch, 526398 bytes, 5 tensors)

conv1.weight f4 [32, 1, 5, 5]
0.074878864 0.061279953 -0.15993036 -0.10082995 0.050656915 0.12891412 -0.042206082 -0.03564981
-0.20585158 -0.11305459 0.09958387 0.02363543 -0.24576265 -0.26865122 -0.25361452 0.14249343
0.2302385 0.19572023 0.0254162 0.003236073 0.13829787 0.2457988 0.14751375 0.38678074
0.22824484 0.12566632 0.24554479 -0.08841726 -0.08435705 -0.040170304 -0.04498173 0.21331905
0.0044685183 -0.047184095 -0.12466786 -0.24436104 -0.064913414 0.24039191 0.097651914 0.026760014
-0.09928769 -0.10044622 0.09785133 -0.06614315 -0.10054194 -0.13828965 0.0718012 0.11006395
-0.06001614 -0.039912283 0.037045665 0.032196183 -0.050322086 -0.15785442 -0.013651769 -0.071105324
0.0045882915 -0.17282271 -0.25860128 -0.10347245 0.117072776 0.15712489 0.16667235 0.21540447
0.2535952 -0.14144327 -0.037940662 0.19794655 0.35127303 0.32332265 -0.44001412 -0.24864662
0.16703132 0.34031734 0.3179661 0.17153555 0.22175398 0.082152985 0.028284173 -0.15676032
-0.077192284 0.3744381 0.24851426 -0.2717668 -0.16464163 0.090167336 0.3555293 0.07965007
-0.11311108 -0.32859334 0.1538718 0.32442266 0.13458455 -0.17054884 -0.34874582 0.08015725
0.35271186 0.03611195 -0.29442224 -0.22935262 0.37065634 0.32550603 -0.031365737 -0.25650272
-0.32812762 -0.017363252 -0.23921053 -0.23850983 -0.09519873 0.14123213 -0.40439525 -0.16431837
-0.00041116003 0.36064652 0.42178136 -0.2274433 0.05743955 0.28143403 0.18663539 0.08043717
0.2827255 0.15530415 -0.07119843 -0.17260356 -0.41800615 -0.008692475 0.040739674 -0.07934024
-0.2977988 -0.28219166 0.09459105 0.22160596 -0.110672444 0.11566672 0.49639258 0.05704351
0.17201574 0.01376249 0.22060786 0.32820174 0.1632606 0.33868358 0.19802305 -0.018667467
-0.23797077 -0.01889172 0.2611033 -0.043964956 -0.21423522 -0.34537044 -0.17566293 -0.05914241
0.16697368 0.3477812 0.27652675 -0.26685694 -0.15203507 -0.36547795 -0.12682094 -0.015296402
-0.026390882 -0.23176695 -0.4546087 -0.40532488 -0.24079098 0.25875562 0.13426897 0.15138635
-0.069403656 -0.048052114 0.3435833 0.23288116 0.3793032 0.3271582 0.05527444 0.119283274
0.083054155 0.034970637 0.2874789 -0.025178013 0.16985898 0.19601388 0.1898201 0.17959328
0.27886552 0.2753097 0.18271461 0.04730032 -0.020276269 0.30078626 0.17746639 0.077913694
-0.25798163 -0.12413187 -0.17456864 -0.18720642 -0.43481955 -0.30373085 -0.306805 -0.037718974
0.09139507 0.21448307 -0.08463036 -0.17512706 -0.14740077 0.1840991 0.016309824 0.10892248
-0.01519049 0.03837118 0.06980675 0.04415244 0.03781927 -0.013758736 0.0035309254 0.11122857
0.040456112 0.012189569 0.16227637 -0.22438039 0.02555938 0.22121902 0.08663528 -0.023261597
-0.23690155 0.067442775 -0.14034273 -0.03068007 -0.08551921 -0.0999879 0.14766665 0.2156826
0.21172892 0.36441055 0.23969017 0.061366998 0.20010425 0.10220741 0.18428785 0.30017778
-0.00041015842 0.045999315 -0.05783212 -0.029555652 0.24008948 -0.41143224 -0.25185797 -0.42416385
-0.30181187 -0.059813235 -0.07283597 0.023275364 0.18250968 -0.05944321 -0.09771258 -0.059302464
00000000: 175a 993d b000 7b3d c9c4 23be ef7f cebd
00000010: a07d 4f3d 1002 043e 49e0 2cbd 8905 12bd
00000020: c2ca 52be 2a89 e7bd a1f2 cb3d 179f c13c
00000030: 34a9 7bbe a78c 89be c3d9 81be cce9 113e
00000040: a4c3 6b3e e26a 483e a235 d03c 4c14 543b
00000050: f59d 0d3e aeb2 7b3e d80d 173e 2008 c63e
00000060: 04b9 693e acae 003e 1870 7b3e 1c14 b5bd
00000070: 64c3 acbd 9e89 24bd c33e 38bd 4f70 5a3e
00000080: a66c 923b 1c44 41bd dd51 ffbd c839 7abe
00000090: 53f1 84bd 4c29 763e bafd c73d d137 db3c
000000a0: 5857 cbbd bfb6 cdbd 4766 c83d 0f76 87bd
000000b0: efe8 cdbd cd9b 0dbe 820c 933d 3569 e13d
000000c0: 7cd3 75bd 107b 23bd 32bd 173d 25e0 033d
000000d0: 881e 4ebd 97a4 21be abab 5fbc ab9f 91bd
000000e0: 6159 963b 70f8 30be 6367 84be 5de9 d3bd
000000f0: dac3 ef3d 59e5 203e 28ac 2a3e fd92 5c3e
00000100: 3bd7 813e 81d6 10be ab67 1bbd 80b2 4a3e
00000110: 0fda b33e 8c8a a53e 8849 e1be 389d 7ebe
00000120: 420a 2b3e 133e ae3e 74cc a23e 04a7 2f3e
00000130: 7a13 633e d33f a83d 36b4 e73c c785 20be
00000140: fd16 9ebd 5ab6 bf3e 867a 7e3e 0525 8bbe
00000150: d197 28be a7a9 b83d f007 b63e 931f a33d
00000160: c8a6 e7bd 633d a8be 9290 1d3e ba1a a63e
00000170: 88d0 093e 5ba4 2ebe d08e b2be 7c29 a43d
00000180: a696 b43e 20ea 133d 83be 96be 6adb 6abe
00000190: abc6 bd3e baa8 a63e 5c79 00bd 5354 83be
000001a0: 5800 a8be 613d 8ebc 9bf3 74be ec3b 74be
000001b0: 8df7 c2bd 289f 103e e50c cfbe 1343 28be
000001c0: f790 d7b9 a9a6 b83e baf3 d73e e5e6 68be
000001d0: bc45 6b3d 1f18 903e 591d 3f3e 3ebc a43d
000001e0: 66c1 903e 0d08 1f3e 7cd0 91bd fdbe 30be
000001f0: e704 d6be e26a 0ebc a5de 263d 237d a2bd
00000200: 1679 98be 6d7b 90be f4b8 c13d acec 623e
00000210: 3ca8 e2bd ace2 ec3d 2b27 fe3e 75a6 693d
00000220: e524 303e 117c 613c 07e7 613e 0f0a a83e
00000230: c92d 273e ef67 ad3e 8ec6 4a3e 84ec 98bc
00000240: 9cae 73be cfc2 9abc 55af 853e 9914 34bd
00000250: 7a60 5bbe 65d4 b0be fce0 33be 503f 72bd
00000260: 26fb 2a3e 6110 b23e ea94 8d3e 79a1 88be
00000270: 15af 1bbe ed1f bbbe 59dd 01be c39d 7abc
00000280: b131 d8bc 5154 6dbe 79c2 e8be be86 cfbe
00000290: e991 76be 9e7b 843e ce7d 093e 0605 1b3e
000002a0: 8123 8ebd 4bd2 44bd 26ea af3e 6678 6e3e
000002b0: 0734 c23e 4881 a73e 7467 623d ca4a f43d
000002c0: 4c18 aa3d 5f3d 0f3d 6f30 933e 1f42 cebc
000002d0: 83ef 2d3e ddb7 483e 3360 423e 4de7 373e
000002e0: 76c7 8e3e 65f5 8c3e 8a19 3b3e fbbd 413d
000002f0: 6b1a a6bc a800 9a3e c0b9 353e 3791 9f3d
00000300: 2b16 84be da38 febd 1fc2 32be 0ab3 3fbe
00000310: aba0 debe 9c82 9bbe 8c15 9dbe 367f 1abd
00000320: 572d bb3d 73a1 5b3e af52 adbd 8254 33be
00000330: 3af0 16be 7984 3c3e 2e9c 853c c012 df3d
00000340: 88e1 78bc 192b 1d3d d7f6 8e3d 30d9 343d
00000350: 61e8 1a3d 526c 61bc 1967 673b cecb e33d
00000360: 4fb5 253d c2b6 473c c72b 263e f9c3 65be
00000370: e861 d13c 3d87 623e d66d b13d 1b8f bebc
00000380: 5296 72be 701f 8a3d 01b6 0fbe c554 fbbc
00000390: b224 afbd 75c6 ccbd ed35 173e e6db 5c3e
000003a0: 77cf 583e 0594 ba3e 5771 753e f65b 7b3d
000003b0: 21e8 4c3e 1e52 d13d f4b5 3c3e e7b0 993e
000003c0: 880a d7b9 c769 3c3d 60e1 6cbd b21e f2bc
000003d0: 04da 753e 3fa7 d2be 87f3 80be 012c d9be
000003e0: 1687 9abe b9fe 74bd 062b 95bd faab be3c
000003f0: d1e3 3a3e b97a 73bd 881d c8bd 24e7 72bd

conv2.weight f4 [64, 32, 3, 3]
0.025813922 -0.016122753 0.04095129 -0.02543398 0.0017640581 0.033898428 0.035033796 -0.04005992
-0.012201684 0.0073080002 -0.020550689 -0.020114165 0.011929862 -0.029221283 0.0063263075 0.018203065
-0.02052931 0.033983745 -0.013369815 0.011551724 0.061670866 -0.005197942 0.028479138 0.01611323
-0.0069074044 -0.00643602 0.01077027 -0.0017535029 0.013902259 -0.0042463345 0.028196698 -0.008615393
0.0061770813 -0.017988553 -0.032738253 0.031113131 0.007265007 -0.018472638 -0.018371675 0.01836118
-0.001387868 0.040388733 0.012812895 0.012939682 0.0053460645 -0.0038138886 0.012979993 0.019924358
-0.003526071 0.00982926 0.021455828 0.036441308 -0.01581408 -0.025271248 0.013348167 -0.04109003
0.0034249409 -0.01939116 0.028446522 -0.04487619 0.021179829 0.026111627 -0.0110987825 0.013756976
0.04478824 -0.032843377 0.0029364806 -0.035402376 -0.010620228 0.0029195743 0.0037040294 -0.009705451
-0.038234606 0.0036165977 -0.007751984 0.010216826 0.033170365 0.04587503 -0.023451505 -0.0052855387
-0.01882894 -0.038303506 -0.03904803 0.027517358 0.02211801 0.00757705 0.019339003 -0.038985334
0.003939337 0.039357398 -0.02419915 0.029900951 0.0060574063 0.029992701 -0.023373803 0.023575515
-0.041111995 -0.0033432783 0.014449783 0.011790539 0.032079402 0.04052893 0.040637545 0.028913137
0.037053473 -0.0003626139 -0.03320917 -0.0041214554 -6.725202e-05 -0.031105526 0.024999859 0.019625377
0.009193069 0.020087326 0.038821265 0.022942366 -0.027328733 -0.011123956 0.0098075345 -0.019792134
0.021978304 -0.041402753 -0.030672818 0.034218557 0.03905523 -0.0114394035 0.017511243 -0.040428817
0.023181418 0.010841703 0.030612346 -0.04961351 -0.0482535 0.016063085 0.027517367 0.047780108
0.018880771 -0.06766486 0.04935741 -0.07591644 -0.0046416814 -0.047590345 -0.031515628 0.004791896
-0.02151326 -0.025811674 -0.06160399 -0.043314237 -0.00404159 -0.0397765 -0.040858544 -0.029620161
-0.024716483 -0.034749623 0.026144862 0.02202172 0.0060156146 -0.023947693 0.0149216745 0.0012985992
-0.031528186 0.009513883 0.05651899 -0.04091281 -0.04490598 0.018708156 0.03126459 -0.03403155
-0.0011739578 0.021343403 0.009759728 -0.004422508 0.027554555 0.03457785 -0.022077054 0.0059051556
0.03922063 0.038926892 -0.036329385 0.03872112 0.0013564818 -0.051524602 -0.009319499 -0.024146566
-0.01156988 -0.024386946 -0.03905203 -0.0035934097 -0.00584674 0.03928357 0.011113091 0.044026703
0.023981266 -0.008825276 0.037926354 -0.00630168 0.011299733 -0.008443656 0.0017833814 -0.015057329
4.75367e-05 -0.031312756 0.011526123 -0.016389364 -0.0017892685 0.035497595 -0.030326564 -0.027315129
-0.023260916 0.0043300367 0.024133565 0.010857115 0.06386875 -0.028601015 -0.0077328114 0.06077823
0.03750241 -0.010397866 -0.032095745 0.011792129 0.0313687 -0.016922256 -0.018601893 0.023738692
-0.00426799 -0.036466528 -0.023718342 0.014922274 -0.009190588 0.029195528 0.034510236 0.004785194
-0.0051798215 -0.013234315 0.0087575205 0.0029729246 -0.037016153 -0.0050207544 -0.03596174 0.027397143
-0.03068296 0.047045983 -0.008863488 -0.021130491 0.0162409 -0.00048852403 0.040263392 0.01670745
-0.034530003 0.033338014 -0.009860374 -0.005879236 0.027271176 0.026592812 -0.03732948 -0.0032705034
00000000: b877 d33c dd13 84bc 8abc 273d ec5a d0bc
00000010: f837 e73a 14d9 0a3d 997f 0f3d df15 24bd
00000020: 92e9 47bc f377 ef3b eb59 a8bc 76c6 a4bc
00000030: 7875 433c 7961 efbc ea4c cf3b 981e 953c
00000040: 152d a8bc 8a32 0b3d 120d 5bbc 7143 3d3c
00000050: 979a 7c3d 7f53 aabb 154d e93c e4ff 833c
00000060: 8257 e2bb 40e5 d2bb c975 303c cbd5 e5ba
00000070: 4dc6 633c d624 8bbb c3fc e63c 9427 0dbc
00000080: 1d69 ca3b bb5c 93bc 8c18 06bd f7e0 fe3c
00000090: 4c0f ee3b ee53 97bc 3280 96bc 2f6a 963c
000000a0: 1fe9 b5ba a86e 253d 2ded 513c f600 543c
000000b0: 0a2e af3b 6ff2 79bb 09aa 543c 6838 a33c
000000c0: a815 67bb e80a 213c 22c4 af3c 7b43 153d
000000d0: 888c 81bc a605 cfbc 45b2 5a3c 054e 28bd
000000e0: f974 603b 36da 9ebc ae08 e93c 19d0 37bd
000000f0: 5281 ad3c 0de8 d53c abd7 35bc f164 613c
00000100: e073 373d c786 06bd f871 403b 1502 11bd
00000110: 7700 2ebc 5456 3f3b 4dbf 723b 9d03 1fbc
00000120: e49b 1cbd 7104 6d3b 5b04 febb 7964 273c
00000130: a6dd 073d 75e7 3b3d 5f1d c0bc 5032 adbb
00000140: 263f 9abc 23e4 1cbd d4f0 1fbd 156c e13c
00000150: d430 b53c e748 f83b d46c 9e3c 16af 1fbd
00000160: 8e15 813b 3935 213d 4c3d c6bc d7f2 f43c
00000170: 357d c63b 41b3 f53c 6b7a bfbc 7021 c13c
00000180: 0d65 28bd e71a 5bbb c8be 6c3c 1b2d 413c
00000190: b165 033d aa01 263d 8e73 263d 3edb ec3c
000001a0: 62c5 173d 371d beb9 5706 08bd 460d 87bb
000001b0: a709 8db8 04d1 febc 81cc cc3c 66c5 a03c
000001c0: 879e 163c 2d8e a43c 0c03 1f3d a1f1 bb3c
000001d0: 82e0 dfbc 4141 36bc c8af 203c 1d23 a2bc
000001e0: d80b b43c ef95 29bd 9045 fbbc c228 0c3d
000001f0: 60f8 1f3d 566c 3bbc bd73 8f3c b098 25bd
00000200: f5e6 bd3c 66a1 313c bec6 fa3c 8937 4bbd
00000210: 76a5 45bd bb96 833c 1a6c e13c 13b5 433d
00000220: d9ab 9a3c e093 8abd ff2a 4a3d 147a 9bbd
00000230: 3f19 98bb 18ee 42bd 8816 01bd 5605 9d3b
00000240: 943c b0bc 0173 d3bc 7754 7cbd 456a 31bd
00000250: 506f 84bb afec 22bd 4a5b 27bd fba5 f2bc
00000260: 397a cabc 9f55 0ebd c02d d63c e566 b43c
00000270: a21e c53b f42d c4bc 0a7a 743c c235 aa3a
00000280: b323 01bd 1ee0 1b3c 7580 673d 3194 27bd
00000290: 55ef 37bd d941 993c 4c0f 003d ab64 0bbd
000002a0: 7ddf 99ba 5cd8 ae3c 44e7 1f3c b0ea 90bb
000002b0: 17ba e13c 81a1 0d3d f0da b4bc 0980 c13b
000002c0: d0a5 203d ce71 1f3d 1fce 14bd 0a9a 1e3d
000002d0: facb b13a 760b 53bd d0b0 18bc 05cf c5bc
000002e0: 988f 3dbc 22c7 c7bc 05f5 1fbd 697f 6bbb
000002f0: 0396 bfbb cfe7 203d af13 363c 5855 343d
00000300: 5c74 c43c e497 10bc aa58 1b3d 537e cebb
00000310: 8422 393c 4357 0abc 5ac0 e93a 04b3 76bc
00000320: 2562 4738 ce41 00bd 10d8 3c3c fd42 86bc
00000330: e385 eaba ed65 113d 6a6f f8bc fac3 dfbc
00000340: ad8d bebc fbe2 8d3b c1b3 c53c 0ae2 313c
00000350: 9fcd 823d ad4c eabc 8663 fdbb 98f2 783d
00000360: 219c 193d d05b 2abc d476 03bd c633 413c
00000370: 777c 003d 8ba0 8abc ff62 98bc a577 c23c
00000380: 7fda 8bbb ed5d 15bd f84c c2bc 8e7c 743c
00000390: 1f94 16bc 762b ef3c 9b5a 0d3d 1ecd 9c3b
000003a0: 7ebb a9bb bed4 58bc b47b 0f3c 66d5 423b
000003b0: 409e 17bd 2485 a4bb 9e4c 13bd f96f e03c
000003c0: d55a fbbc 4ab3 403d 2a38 11bc da19 adbc
000003d0: a30b 853c 4b10 00ba 3aeb 243d 10de 883c
000003e0: 556f 0dbd 718d 083d 688d 21bc 9ba6 c0bb
000003f0: cd67 df3c 2bd9 d93c cce6 18bd f155 56bb

conv3.weight f4 [64, 64, 3, 3]
-0.03646873 0.0026556335 -0.0462152 -0.018668782 -0.014947532 -0.02726956 -0.016959632 0.02537664
-0.023537252 0.03762888 0.012200574 0.032119617 0.017476805 0.029889053 0.000234959 0.029654043
0.046220295 0.045425877 -0.027362196 -0.04562864 0.018527826 -0.06502202 -0.09014902 -0.04371184
0.0194274 0.031313498 0.04146317 -0.0130841555 -0.04635014 0.034241274 -0.02285543 -0.016688727
-0.0800475 0.042612102 0.0035682665 -0.0694018 0.03595875 0.036579672 -0.015713526 0.028378164
0.0030335602 -0.00035293298 0.007254753 0.03032325 0.02091918 -0.009469203 -0.0031407403 -0.002191084
0.021035459 -0.025657134 -0.017989915 0.019720292 -0.008283091 -0.009762869 -0.04798069 -0.100339964
-0.031110657 -0.09806591 -0.061140675 -0.04807099 -0.037125714 -0.04518081 -0.025591312 -0.08896549
-0.08983271 -0.061517585 0.031141875 0.000979953 0.004422227 0.0630245 0.090099424 0.06419952
0.06380226 0.021779025 -0.012889108 -0.07515534 -0.014161712 0.017407354 -0.07872024 0.031264022
0.15112936 -0.030292634 0.013013497 0.010780412 -0.018347966 0.009350067 -0.019247409 0.023377705
-0.015872214 0.009387507 -0.0025933194 -0.057861295 -0.101641454 0.010043894 -0.0060841036 -0.03283431
-0.07642793 -0.015846182 -0.0075159944 0.008366783 0.024768574 -0.03236733 0.020159679 0.01129337
-0.017285837 -0.0013034932 0.023709929 0.041263573 -0.011621761 -0.067236125 -0.04525949 -0.026167035
-0.040066488 -0.03154205 0.0116480915 0.060938433 0.018934589 -0.01399044 0.0023741464 0.017542806
-0.050468586 -0.008857635 -0.01865165 -0.03743509 0.04793406 0.058352992 0.04487147 0.050831817
0.061417136 0.010472864 0.0135757085 -0.018620413 -0.011536083 0.017797453 -0.045460425 0.00452345
0.03714059 0.04281843 -0.01817169 -0.08981555 -0.06725662 0.07697474 0.06594762 0.033432122
-0.01212682 -0.037213147 -0.02399779 0.042569764 0.02162173 0.048984423 0.047840837 0.06509531
0.059681468 0.009582222 -0.06978736 -0.07510229 0.06184986 0.009852318 -0.06032128 -0.043648608
0.006233355 0.01025331 -0.01321709 -0.027254479 -0.11041229 0.008221472 0.013273392 -0.024106018
-0.049302448 -0.008623898 0.06138656 0.09311685 0.009265123 -0.03086788 0.032743063 0.018861732
0.047774643 -0.06401019 0.038813055 0.093083315 -0.11936509 -0.03418854 -0.015131502 -0.061877087
-0.037301052 0.017338801 0.027541582 0.10401276 0.006699036 -0.044379525 -0.02671975 0.006344156
-0.0026959723 -0.054939795 -0.10281514 0.008356912 0.014757354 0.05877376 0.02847281 0.015798721
0.029140677 0.044561364 0.06021171 0.032401323 0.0014249407 0.003679199 0.014725389 -0.008173783
-0.00068704 -0.014374712 -0.009186128 0.0054886807 -0.016083328 -0.02220112 0.022762425 -0.016856808
-0.07557953 -0.0021652365 0.006989993 0.015279235 0.021073839 0.040983606 -0.018896792 0.048224196
0.076516114 -0.057011545 -0.048957836 -0.04042211 -0.053658653 -0.043666985 0.021828482 -0.13940774
-0.061001316 0.03458874 -0.0914495 -0.078051835 -0.04815731 0.037000343 0.031114593 0.011814353
0.023419484 0.042972535 0.12725341 -0.11157696 -0.082481466 -0.06593417 -0.0932536 -0.07044367
-0.13405225 0.06762989 0.056273647 -0.092748374 0.03553273 0.007137577 0.006277134 -0.0062213438
00000000: 3c60 15bd 230a 2e3b 264c 3dbd 46ef 98bc
00000010: 7ee6 74bc 6a64 dfbc edee 8abc ace2 cf3c
00000020: 32d1 c0bc be20 1a3d ebe4 473c dc8f 033d
00000030: 842b 8f3c e3d9 f43c 545f 7639 09ed f23c
00000040: 7e51 3d3d 7c10 3a3d af26 e0bc 19e5 3abd
00000050: abc7 973c 442a 85bd 0da0 b8bd 300b 33bd
00000060: 3626 9f3c 9542 003d 49d5 293d ed5e 56bc
00000070: a5d9 3dbd 9440 0c3d 503b bbbc ccb6 88bc
00000080: f2ef a3bd 078a 2e3d 94d9 693b 8822 8ebd
00000090: 7b49 133d 91d4 153d a7b9 80bc 5379 e83c
000000a0: b2ce 463b dd09 b9b9 47b9 ed3b 7768 f83c
000000b0: b35e ab3c b724 1bbc e1d4 4dbb 4a98 0fbb
000000c0: 8e52 ac3c e92e d2bc 965f 93bc 738c a13c
000000d0: cdb5 07bc 71f4 1fbc 6687 44bd 0a7f cdbd
000000e0: c7db febc c8d6 c8bd a56e 7abd 16e6 44bd
000000f0: 2211 18bd 830f 39bd dfa4 d1bc 8a33 b6bd
00000100: 36fa b7bd ddf9 7bbd 3f1d ff3c c471 803a
00000110: 54e8 903b fd12 813d 0c86 b83d 0a7b 833d
00000120: c2aa 823d ed69 b23c d62c 53bc 0beb 99bd
00000130: 8606 68bc de99 8e3c 1438 a1bd b40e 003d
00000140: a8c1 1a3e 4228 f8bc 9036 553c 53a0 303c
00000150: 794e 96bc 0631 193c beac 9dbc 9a82 bf3c
00000160: 7206 82bc 0fce 193c aef4 29bb f7ff 6cbd
00000170: 6529 d0bd 258f 243c 295d c7bb 457d 06bd
00000180: 3f86 9cbd dacf 81bc bb48 f6bb d514 093c
00000190: 77e7 ca3c 9b93 04bd e925 a53c d407 393c
000001a0: 079b 8dbc f9d9 aaba 533b c23c fe03 293d
000001b0: 3369 3ebc 18b3 89bd 0462 39bd 405c d6bc
000001c0: c21c 24bd 3d32 01bd a3d7 3e3c 949a 793d
000001d0: b61c 9b3c 2938 65bc 9197 1b3b eeb5 8f3c
000001e0: 26b8 4ebd 9d1f 11bc 58cb 98bc 8955 19bd
000001f0: 8156 443d 8c03 6f3d 26cb 373d 0635 503d
00000200: 8990 7b3d 6096 2b3c a66c 5e3c d689 98bc
00000210: d701 3dbc f7cb 913c b634 3abd 7339 943b
00000220: bb20 183d 6162 2f3d ccdc 94bc 37f1 b7bd
00000230: d7bd 89bd efa4 9d3d 8c0f 873d 1ff0 083d
00000240: 92af 46bc d06c 18bd 0397 c4bc a25d 2e3d
00000250: 0e20 b13c e4a3 483d c1f4 433d b150 853d
00000260: 8e74 743d c1fe 1c3c adec 8ebd 3bcf 99bd
00000270: 4756 7d3d 9e6b 213c 7213 77bd e2c8 32bd
00000280: 2c41 cc3b 80fd 273c 7e8c 58bc c944 dfbc
00000290: d71f e2bd 5ab3 063c a478 593c fc79 c5bc
000002a0: 5df1 49bd 404b 0dbc 7970 7b3d 0cb4 be3d
000002b0: becc 173c a3de fcbc 971d 063d eb83 9a3c
000002c0: 58af 433d c617 83bd 70fa 1e3d 77a2 be3d
000002d0: af75 f4bd 4809 0cbd 1fea 77bc d472 7dbd
000002e0: fdc8 18bd 1a0a 8e3c e29e e13c a404 d53d
000002f0: 9683 db3b 4ec7 35bd 61e3 dabc a3e2 cf3b
00000300: e9ae 30bb 8d08 61bd be90 d2bd 6eeb 083c
00000310: d4c8 713c c1bc 703d cf3f e93c 526c 813c
00000320: 6eb8 ee3c fa85 363d 8ea0 763d 40b7 043d
00000330: 13c5 ba3a b71e 713b c242 713c 55eb 05bc
00000340: 791a 34ba e983 6bbc 6a81 16bc 64da b33b
00000350: 2fc1 83bc 20df b5bc 4478 ba3c 4a17 8abc
00000360: 71c9 9abd a4e6 0dbb 500c e53b c255 7a3c
00000370: 0ba3 ac3c 6dde 273d 72cd 9abc bc86 453d
00000380: 7bb4 9c3d f084 69bd 0388 48bd a891 25bd
00000390: 2dc9 5bbd 27dc 32bd a5d1 b23c e7c0 0ebe
000003a0: 84dc 79bd ecac 0d3d e049 bbbd a4d9 9fbd
000003b0: 9940 45bd ac8d 173d 08e4 fe3c fd90 413c
000003c0: 38da bf3c f803 303d b84e 023e 7682 e4bd
000003d0: 0bec a8bd 7e08 87bd befb bebd c544 90bd
000003e0: fe44 09be 8a81 8a3d 327f 663d dcf2 bdbd
000003f0: c58a 113d 56e2 e93b 6bb0 cd3b 6adc cbbb

conv4.weight f4 [128, 64, 3, 3]
-0.047678154 -0.10394879 -0.11313609 0.009901577 0.004552916 -0.09950098 -0.1744184 -0.057793647
0.015523756 0.047299124 0.16715108 0.19498748 -0.048428647 0.040519476 -0.043323454 0.013589964
-0.022525644 -0.08429101 -0.012052681 0.011983592 0.13473657 0.04136256 0.04327204 -0.031453233
-0.03368538 -0.041474238 -0.1022559 -0.019259796 0.057304252 -0.010863523 -0.031719726 0.0055729677
0.0058131856 0.09262622 0.068512656 -0.003158012 -0.031635083 0.054605473 -0.040931296 -0.046532657
-0.0129214395 -0.018543707 -0.016539222 0.07664391 0.030154971 0.029397603 0.011617325 -0.015175199
-0.014197904 -0.039084245 -0.017077794 -0.021090157 0.044330597 -0.021005282 -0.0023398607 0.1141825
0.10600493 -0.03315105 -0.10391146 -0.043564107 0.1033941 0.03948482 0.0061136414 0.0126071125
0.10863282 0.11908253 -0.0061380547 -0.0075820102 -0.0027360956 -0.031340577 0.0019787073 -0.14279278
-0.08556403 -0.14578503 -0.05629055 0.084522 0.11705346 -0.028748062 -0.2072361 -0.0099090645
-0.10968178 0.062700115 -0.008420422 0.017661173 -0.059478555 -0.03685165 0.046163708 -0.01603539
0.023640627 -0.00040137794 0.0012241078 -0.080619656 -0.08641172 -0.02342688 -0.009474519 -0.040085908
-0.014450344 -0.057524674 -0.05353293 0.028292503 -0.02918639 0.002775973 -0.012690525 -0.008552922
-0.018995615 0.115596205 0.004278956 0.14213745 0.010282102 0.10854936 0.20292273 -0.0072892434
0.015907804 0.03171495 0.051308356 -0.10458517 -0.016862137 -0.013971747 0.055989776 -0.007680672
-0.01536463 -0.09097336 -0.07265964 0.23118393 0.05948613 0.04685957 -0.064176224 -0.045761604
0.027964955 0.039898057 -0.01892635 -0.068196036 -0.049288623 -0.0016965679 0.06947025 0.031907033
0.079357885 0.095093586 0.0084464755 -0.03221877 -0.021082005 0.06493972 -0.026331993 0.041271858
-0.024475705 0.016764937 -0.0132944975 0.010455603 -0.017799767 -0.043766662 -0.004035144 -0.00051137444
-0.05884905 0.00820664 0.10209425 0.105327524 -0.0123595325 -0.024758352 0.051812556 -0.07639302
-0.059622 -0.09484086 -0.005490461 0.036979042 0.022605866 -0.0027037994 -0.009845343 0.021383487
0.06799388 0.028879233 -0.025921822 0.04420244 -0.021138465 0.026596233 -0.0071577737 -0.004843483
0.047707498 0.024123026 -0.026897106 -0.08652338 -0.006244276 0.030928975 0.048098322 -0.004402818
0.012402223 -0.02862956 0.055002317 0.06145594 0.022500558 -0.023737077 0.00054084306 0.013893414
0.0039162943 0.05660639 0.039295718 0.093364455 0.031265236 0.042613816 -0.022963379 -0.006148319
-0.045649573 -0.02072452 -0.03088423 0.01563023 -0.00035716637 0.030104674 -0.07648283 -0.02994978
0.02196685 -0.02335714 -0.026399732 -0.12947573 -0.0886587 0.13886061 0.06545972 0.0098499935
0.040205456 0.05337222 0.04125982 0.008395844 0.035716094 0.007023513 -0.057520308 -0.049456682
-0.031305123 -0.04218569 -0.012570789 0.0040814993 0.006545956 0.03654607 0.040542416 0.073805206
0.033434406 0.06834276 -0.04718143 -0.09452609 -0.058450017 0.04116511 0.015339327 -0.042472146
-0.017914455 -0.050667316 0.06137279 -0.04411003 -0.036453802 -0.07342131 -0.03543482 -0.04204765
0.013213719 -0.03415346 0.015883138 0.08127045 0.037450768 0.005283328 0.13029821 -0.035527203
00000000: 2b4a 43bd 1ae3 d4bd e5b3 e7bd 393a 223c
00000010: a130 953b 2bc7 cbbd bd9a 32be 08b9 6cbd
00000020: 5a57 7e3c babc 413d a729 2b3e ccaa 473e
00000030: 1e5d 46bd c0f7 253d ef73 31bd 71a8 5e3c
00000040: b387 b8bc c4a0 acbd 9c78 45bc d456 443c
00000050: 62f8 093e ca6b 293d 063e 313d 1bd5 00bd
00000060: aef9 09bd e4e0 29bd 8b6b d1bd b8c6 9dbc
00000070: ddb7 6a3d ebfc 31bc 8bec 01bd 719d b63b
00000080: 897c be3b d1b2 bd3d 5d50 8c3d a6f6 4ebb
00000090: ca93 01bd fda9 5f3d 93a7 27bd 0799 3ebd
000000a0: 72b4 53bc f9e8 97bc 437d 87bc 7bf7 9c3d
000000b0: 8f07 f73c 3ed3 f03c 9856 3e3c 66a1 78bc
000000c0: 539e 68bc cd16 20bd bbe6 8bbc 44c5 acbc
000000d0: 0094 353d 4513 acbc 5958 19bb 84d8 e93d
000000e0: 1d19 d93d 65c9 07bd 88cf d4bd 4770 32bd
000000f0: 49c0 d33d d6ba 213d f154 c83b 108e 4e3c
00000100: e27a de3d 8be1 f33d bc21 c9bb 8372 f8bb
00000110: 1150 33bb fa5e 00bd 33ad 013b 4538 12be
00000120: 323c afbd ac48 15be eb90 66bd df19 ad3d
00000130: b9b9 ef3d 0e81 ebbc b335 54be a159 22bc
00000140: d7a0 e0bd eb68 803d cff5 09bc 2aae 903c
00000150: c99f 73bd c1f1 16bd 2816 3d3d a65c 83bc
00000160: fda9 c13c 0970 d2b9 3e72 a03a eb1b a5bd
00000170: a1f8 b0bd bae9 bfbc 033b 1bbc 1f31 24bd
00000180: 23c1 6cbc fe9e 6bbd 5845 5bbd aec5 e73c
00000190: 4c18 efbc 19ed 353b ebeb 4fbc 8e21 0cbc
000001a0: b19c 9bbc b4bd ec3d 7c36 8c3b 7b8c 113e
000001b0: 4376 283c 204f de3d faca 4f3e 9bda eebb
000001c0: 1551 823c 89e7 013d b628 523d c030 d6bd
000001d0: 7722 8abc c1e9 64bc 8955 653d 26ae fbbb
000001e0: eebb 7bbc 3e50 babd 94ce 94bd 7bbb 6c3e
000001f0: baa7 733d d2ef 3f3d d36e 83bd 8570 3bbd
00000200: c316 e53c 256c 233d 6f0b 9bbc 5daa 8bbd
00000210: dee2 49bd 5f5f deba 6b46 8e3d f3b0 023d
00000220: 6386 a23d 6dc0 c23d 1663 0a3c d4f7 03bd
00000230: 2bb4 acbc 1eff 843d 31b6 d7bc ae0c 293d
00000240: 4681 c8bc 9f56 893c 2ad1 59bc fa4d 2b3c
00000250: d1d0 91bc ac44 33bd 3e39 84bb c20d 06ba
00000260: b40b 71bd 2575 063c ca16 d13d f5b5 d73d
00000270: a37f 4abc 07d2 cabc 6739 543d f273 9cbd
00000280: 3336 74bd ed3b c2bd 53e9 b3bb 5677 173d
00000290: f02f b93c 3a32 31bb 5d4e 21bc 6c2c af3c
000002a0: 6040 8b3d 2494 ec3c 005a d4bc 9e0d 353d
000002b0: 932a adbc 58e0 d93c c28b eabb 15b6 9ebb
000002c0: f068 433d a79d c53c 5257 dcbc 2b33 b1bd
000002d0: c99c ccbb c35e fd3c bf02 453d 8445 90bb
000002e0: b232 4b3c 8a88 eabc 1c4a 613d 39b9 7b3d
000002f0: 1753 b83c 4274 c2bc 5dc7 0d3a 34a1 633c
00000300: 4254 803b 1adc 673d 8cf4 203d dd35 bf3d
00000310: fa0f 003d d38b 2e3d b21d bcbc d777 c9bb
00000320: 0cfb 3abd 78c6 a9bc ed00 fdbc f80a 803c
00000330: 0f42 bbb9 149e f63c 08a3 9cbd 3e59 f5bc
00000340: d3f3 b33c 7957 bfbc 4044 d8bc 4995 04be
00000350: b192 b5bd 7a31 0e3e bf0f 863d de61 213c
00000360: 7aae 243d d49c 5a3d 0f00 293d b98e 093c
00000370: 0a4b 123d 7f25 e63b 6a9a 6bbd 1793 4abd
00000380: cd39 00bd e7ca 2cbd b6f5 4dbc 19be 853b
00000390: 757f d63b 55b1 153d ce0f 263d 2f27 973d
000003a0: 84f2 083d 4af7 8b3d 5141 41bd e596 c1bd
000003b0: 4969 6fbd bf9c 283d cd51 7b3c 46f7 2dbd
000003c0: 56c1 92bc 8888 4fbd 0962 7b3d b8ac 34bd
000003d0: 9550 15bd e95d 96bd 1a24 11bd 283a 2cbd
000003e0: 5b7e 583c 80e4 0bbd 5b1d 823c 1f71 a63d
000003f0: fa65 193d c41f ad3b e56c 053e f984 11bd

fc.weight f4 [10, 128]
0.18121469 -0.3711344 0.19922747 -0.21846554 0.38568935 -0.3217374 -0.49681273 0.7413261
0.20028473 0.13550906 0.07069593 -0.7085658 0.07280483 -0.3337327 0.037632536 0.23302959
-0.30015162 0.78465366 0.3534252 0.2054209 -0.099616334 0.7016725 -0.099478856 0.08186099
0.74420595 -0.4319694 0.55733335 -0.42115337 -0.2810934 0.2402978 0.0744997 -0.37566093
-0.20375513 0.91889364 -0.22010767 -0.03412259 0.30505112 -0.3015282 -0.74058753 0.4644025
0.8265967 -0.76528585 0.31055456 0.099064 0.45642653 -0.3132894 -0.26746818 0.34772262
-0.41515324 -0.4041132 -0.007477161 0.16838472 0.07306077 0.40250355 -0.17495723 -0.3839219
-0.14184487 -0.21870485 0.22925493 -0.37726077 -0.30812755 -0.99564904 0.6853348 0.28481528
-0.57157284 0.56533146 0.0625356 -0.3739348 -0.029147604 -0.5335767 -0.062652715 -0.32441562
-0.56673455 -0.058187913 -0.5941963 -0.47068107 0.62355757 -0.40919843 0.005420678 -0.21603777
-0.7123905 0.6527552 -0.023218723 -1.1681628 -0.9443735 -1.2190906 -0.35371724 -0.08191468
-0.56079894 -0.22030073 -0.2154654 -0.067895785 -0.77798307 -0.20011836 -0.47017905 -0.282395
-0.56624186 -0.01971639 -0.54968727 -0.25741947 -0.08750117 -0.065660216 -0.027737053 -0.032773644
-0.12169894 0.53663385 0.298891 -0.48654813 -0.56550205 0.46274877 -0.5540529 -1.060417
0.18808055 0.90554386 -0.42463768 -0.9844904 -0.022389466 -0.3534173 0.11943732 -0.009256846
-0.82491904 0.13661142 -0.52861375 -0.09274915 0.22721876 0.41539446 -0.70261884 0.21987379
-0.4227212 0.44747788 0.31564924 0.05460294 -0.15328436 0.24643476 0.06287256 -0.100853726
-0.011924075 -0.13611975 0.0111373775 0.39060915 0.28033656 0.7068427 -0.3791073 0.06754699
0.020152459 -0.6865432 -1.0407728 0.12728985 -0.5922507 -0.3275416 0.16318607 0.03829408
0.1097846 -0.13314089 0.35630184 0.08394626 -0.26657125 -0.51147926 -0.44961068 -0.2239695
-0.14550577 0.3101158 0.013682676 -0.20421329 -0.14265092 -0.07064792 0.3193902 0.01725234
-0.06548146 0.33870596 -0.1224369 0.15813687 0.3725958 0.07504184 -0.93125296 0.1647797
-0.12814024 0.097845696 -0.38353667 0.013469941 0.10725149 0.42537877 -0.27156553 -0.15500389
0.21721864 -0.03690045 0.20265326 0.06348709 -0.07731126 -0.17620741 0.2338046 -0.61959165
0.12289407 0.14289722 0.35283747 -0.1785462 -0.46344233 -0.56087244 0.15806456 -0.10150544
0.17963393 0.3801999 -0.05215154 -0.11762527 -0.22106102 0.032899596 0.12538028 -0.3477122
0.41651377 0.37043318 0.22886883 0.30703655 0.07437858 0.38623205 -0.28740248 0.07958523
-0.03272172 0.05179447 0.38417384 0.36102563 0.17590733 -0.55649686 -0.41104698 0.18759362
-0.20981322 0.17538695 -0.1302811 0.059611302 -0.7084321 0.09815888 -0.23573725 -0.45433334
0.27056435 0.26275086 0.10761804 -0.41913977 0.55651945 -0.4612007 -0.20615005 -0.7439541
-0.7615954 -0.53431314 0.0680911 0.11104699 0.3465732 0.5065753 0.17173465 -0.9089762
-0.24134485 -0.36524746 0.26013282 0.12753251 -0.16061682 -0.28819245 0.6420901 -0.8486207
00000000: 5890 393e 5405 bebe 4902 4c3e 6eb5 5fbe
00000010: 1379 c53e c4ba a4be 3d5e febe 8cc7 3d3f
00000020: 7117 4d3e e3c2 0a3e 07c9 903d 9164 35bf
00000030: b31a 953d 03df aabe 9324 1a3d 4f9f 6e3e
00000040: 79ad 99be 10df 483f 26f4 b43e db59 523e
00000050: a603 ccbd cfa0 333f 92bb cbbd bca6 a73d
00000060: 4884 3e3f 182b ddbe 66ad 0e3f 6aa1 d7be
00000070: 79eb 8fbe a010 763e 4c93 983d a156 c0be
00000080: 2fa5 50be 9d3c 6b3f e863 61be 21c4 0bbd
00000090: a92f 9c3e e761 9abe 2597 3dbf 2ac6 ed3e
000000a0: d79b 533f c6e9 43bf 0201 9f3e 11e2 ca3d
000000b0: bdb0 e93e 7867 a0be 97f1 88be b308 b23e
000000c0: f78e d4be ede7 cebe f902 f5bb 0b6d 2c3e
000000d0: e3a0 953d f214 ce3e fd27 33be 6991 c4be
000000e0: c83f 11be 2af4 5fbe cec1 6a3e 5328 c1be
000000f0: e5c2 9dbe dbe2 7ebf 1a72 2f3f 4fd3 913e
00000100: 9952 12bf 90b9 103f aa12 803d 6274 bfbe
00000110: f5c6 eebc 7c98 08bf 1150 80bd ce19 a6be
00000120: 8415 11bf 7356 6ebd 401d 18bf 1cfd f0be
00000130: 78a1 1f3f 7582 d1be f19f b13b 0139 5dbe
00000140: 395f 36bf f71a 273f 3135 bebc 5c86 95bf
00000150: 76c2 71bf 290b 9cbf 6d1a b5be e2c2 a7bd
00000160: 8590 0fbf 8496 61be f6a2 5cbe f20c 8bbd
00000170: e629 47bf d4eb 4cbe 4fbb f0be 1496 90be
00000180: 3af5 10bf 4484 a1bc 4eb8 0cbf 7ccc 83be
00000190: d033 b3bd dd78 86bd d138 e3bc a83d 06bd
000001a0: 4b3d f9bd d660 093f 3e08 993e d61c f9be
000001b0: bec4 10bf 68ed ec3e 69d6 0dbf bfbb 87bf
000001c0: 3098 403e b9d1 673f 1c6a d9be 9007 7cbf
000001d0: 1d6a b7bc 1df3 b4be 8e9b f43d 07aa 17bc
000001e0: e52d 53bf dde3 0b3e 3b53 07bf 44f3 bdbd
000001f0: 09ac 683e 95ae d43e d4de 33bf 9826 613e
00000200: ea6e d8be d21b e53e c79c a13e 55a7 5f3d
00000210: 93f6 1cbe 6559 7c3e 54c3 803d 668c cebd
00000220: 325d 43bc fa62 0bbe 8c79 363c ecfd c73e
00000230: 4688 8f3e a5f3 343f 5a1a c2be 1456 8a3d
00000240: c516 a53c 4cc1 2fbf 0b38 85bf 4558 023e
00000250: be9d 17bf 88b3 a7be 401a 273e 41da 1c3d
00000260: c0d6 e03d 1656 08be 326d b63e 04ec ab3d
00000270: 077c 88be 4ef0 02bf 5f33 e6be 4358 65be
00000280: 77ff 14be 80c7 9e3e 4d2d 603c 4a1d 51be
00000290: 1513 12be dbaf 90bd 1d87 a33e c854 8d3c
000002a0: 251b 86bd de6a ad3e 33c0 fabd a2ee 213e
000002b0: e0c4 be3e 89af 993d 9866 6ebf 02bc 283e
000002c0: 3237 03be 5363 c83d eb5e c4be 07b1 5c3c
000002d0: aba6 db3d 3fcb d93e a30a 8bbe 57b9 1ebe
000002e0: 906e 5e3e ed24 17bd 5684 4f3e 8505 823d
000002f0: 5e55 9ebd b76f 34be 796a 6f3e 8f9d 1ebf
00000300: e3af fb3d a653 123e 1da7 b43e d1d4 36be
00000310: 5048 edbe 5695 0fbf addb 213e 16e2 cfbd
00000320: f5f1 373e 90a9 c23e da9c 55bd 84e5 f0bd
00000330: d25d 62be bac1 063d b063 003e 5507 b2be
00000340: 4b41 d53e 6ba9 bd3e 975c 6a3e e533 9d3e
00000350: cc53 983d 35c0 c53e 6b26 93be 95fd a23d
00000360: 3607 06bd 7026 543d 6fb2 c43e 5ad8 b83e
00000370: 0d21 343e 9476 0ebf c074 d2be 8b18 403e
00000380: 47d9 56be a398 333e 6968 05be fb2a 743d
00000390: ce5b 35bf 8607 c93d 1b65 71be 619e e8be
000003a0: 6987 8a3e 4887 863e d966 dc3d 7d99 d6be
000003b0: 0f78 0e3f 8022 ecbe 0019 53be c773 3ebf
000003c0: ebf7 42bf bfc8 08bf 5973 8b3d 9b6c e33d
000003d0: 0b72 b13e ebae 013f 35db 2f3e aab2 68bf
000003e0: 1b23 77be b701 bbbe 2130 853e e297 023e
000003f0: bc78 24be f68d 93be 0460 243f 353f 59bf
